data.pth (torch, 5023 bytes, 6 tensors)

l1.weight f4 [8, 49]
0.5707676 0.39018685 0.3035288 -0.1709465 -0.2635919 0.7627348 0.36659583 0.28624356
0.38962123 0.39857405 -0.12699583 -0.3799434 0.02442582 -0.019140234 -0.3078051 -0.22421202
0.79921645 -0.1240828 -0.49155596 0.4933441 -0.6185882 -0.5593702 -0.54867476 0.1332028
-0.1525114 -0.12815034 -0.057641357 0.4312654 -0.16099776 0.27816433 0.3000909 -0.024385847
-0.16515277 -0.10567725 0.5358983 0.34405285 0.5581792 -0.2702171 0.31194553 0.7968457
0.27097377 -0.22180474 0.16534683 -0.4686297 -0.10067224 -0.20468463 0.2692129 0.5014287
-0.0023008287 -0.10808667 -0.12796183 0.29951835 -0.09182273 0.069542035 0.9867306 0.35391688
0.20692344 0.65936 0.27389312 -0.16685131 0.63043183 0.86759794 0.56225514 0.30027056
-0.20583585 0.91675794 0.5865197 -0.3449181 -0.23296271 -0.5104389 -0.5866149 -0.5020452
0.36084875 -0.15903388 0.9037357 0.69125754 0.66052336 0.6854744 -0.06590401 0.27511692
0.6647645 0.32463014 0.50232255 0.49483192 0.45119056 0.66589624 0.74418753 0.55207264
-0.59121126 -0.25013497 0.24451968 0.29312286 0.99635935 0.22675507 0.4781107 0.462676
0.2174602 0.5660298 -0.09043982 0.015350403 -0.47980568 0.111124575 0.41672668 -0.3841428
-0.06582398 -0.3288541 -0.49361625 -0.26620677 0.26776505 0.5494915 0.38432676 0.46902758
0.42850208 0.3521847 -0.3716365 0.39832252 0.50186634 -0.11258244 0.59759367 0.49607027
0.66681135 0.20219961 0.1217974 0.59995335 0.24223551 -0.11211454 0.29900295 -0.13722217
-0.36374938 0.17702332 0.3809507 0.27087206 -0.38244334 -0.048687663 -0.29982236 0.38856786
0.045694344 -0.35321394 -0.14781137 0.4228702 -0.23698854 0.55620044 0.47086245 0.50273377
-0.23481812 0.07521654 0.33354872 -0.17176671 0.055248454 0.47678143 0.17235297 0.6178905
-0.314081 0.26483047 0.30978432 0.4140192 0.26655197 0.3656529 0.8866484 0.6159539
0.70978904 0.46101362 0.39934912 -0.29152718 0.39089504 0.55506015 -0.18244894 0.360627
0.5528699 0.67563456 0.6129684 0.16674842 0.4146787 0.1984687 -0.14444189 0.75986725
-0.07856269 0.5592768 0.46316838 0.67659414 0.46106228 0.47483113 0.25262025 -0.30670023
0.4343422 0.5683194 -0.52231723 -0.12721607 0.36465648 0.30438486 0.46767494 0.53619206
0.23487404 0.2494718 0.20062688 0.41259384 0.5463723 0.19166178 0.2036942 0.4051939
0.4048642 -0.40654314 -0.003532602 0.29896212 -0.19250953 0.31657618 0.21878308 -0.38375172
-0.13231903 -0.2428906 -0.064971544 0.2787137 -0.45714298 -0.3004934 0.2021264 0.45490974
0.17627814 0.26461953 0.38344052 0.15179783 0.26447332 -0.502657 -0.25862426 -0.2944707
-0.2750465 0.41183287 0.18228363 -0.08332502 -0.06329903 -0.24235213 -0.117602006 0.009974627
-0.3080754 -0.52743906 0.03394245 0.68995553 0.6028611 0.29092216 0.16281389 -0.3995737
0.034622386 -0.12385776 0.11139528 0.3518686 -0.12685026 -0.10441954 0.01751864 0.43585643
0.23877409 0.37133127 -0.46442375 0.34922734 0.40699992 0.51965463 0.49592084 0.3643037
00000000: d31d 123f 92c6 c73e 2068 9b3e 990c 2fbe
00000010: 84f5 86be 9642 433f 73b2 bb3e 848e 923e
00000020: 6f7c c73e e611 cc3e 320b 02be f187 c2be
00000030: a818 c83c fbcb 9cbc a198 9dbe d697 65be
00000040: 7399 4c3f 1f1f febd 39ad fbbe 9997 fc3e
00000050: cc5b 1ebf e332 0fbf f375 0cbf 5166 083e
00000060: f32b 1cbe d839 03be 5819 6cbd d2ce dc3e
00000070: 99dc 24be 8e6b 8e3e 84a5 993e d4c4 c7bc
00000080: cf1d 29be 506d d8bd a230 093f b227 b03e
00000090: d5e4 0e3f e559 8abe 53b7 9f3e 14fe 4b3f
000000a0: 13bd 8a3e c820 63be ae50 293e 3bf0 efbe
000000b0: 3f2d cebd d998 51be 46d6 893e a25d 003f
000000c0: 80c9 16bb 8b5c ddbd 6d08 03be 785a 993e
000000d0: 8e0d bcbd 0e6c 8e3d 609a 7c3f 9834 b53e
000000e0: bde3 533e d1cb 283f b83b 8c3e 12db 2abe
000000f0: fb63 213f e61a 5e3f f4ef 0f3f 10bd 993e
00000100: a2c6 52be a6b0 6a3f 2826 163f 1b99 b0be
00000110: c78d 6ebe 20ac 02bf 652c 16bf 0986 00bf
00000120: 2bc1 b83e c7d9 22be 395b 673f 41f6 303f
00000130: 0f18 293f 407b 2f3f aef8 86bd 20dc 8c3e
00000140: 022e 2a3f ec35 a63e 3698 003f 9c5a fd3e
00000150: 7302 e73e 2d78 2a3f 1383 3e3f a254 0d3f
00000160: 9f59 17bf b111 80be 5e63 7a3e 3314 963e
00000170: 6811 7f3f 7b32 683e edca f43e dee3 ec3e
00000180: e3ad 5e3e 54e7 103f 8338 b9bd 4280 7b3c
00000190: 17a9 f5be 4895 e33d 335d d53e 5dae c4be
000001a0: b9ce 86bd 915f a8be 45bb fcbe 414c 88be
000001b0: 8018 893e 7aab 0c3f 7ac6 c43e 6224 f03e
000001c0: a064 db3e 8e51 b43e 2447 bebe eef0 cb3e
000001d0: 507a 003f 9f91 e6bd e6fb 183f ecfc fd3e
000001e0: 26b4 2a3f 6a0d 4f3e ea70 f93d 8b96 193f
000001f0: 960c 783e 4f9c e5bd ea16 993e f883 0cbe
00000200: 5c3d babe 9a45 353e f80b c33e beaf 8a3e
00000210: 9dcf c3be b76c 47bd 5182 99be 5ef2 c63e
00000220: fe29 3b3d 75d8 b4be dd5b 17be 7182 d83e
00000230: 20ad 72be 2763 0e3f e214 f13e 29b3 003f
00000240: 2974 70be 210b 9a3d e6c6 aa3e 9de3 2fbe
00000250: 344c 623d b21c f43e 4c7d 303e 122e 1e3f
00000260: 3acf a0be dc97 873e 0d9c 9e3e 53fa d33e
00000270: 8079 883e db36 bb3e 64fb 623f 28af 1d3f
00000280: bcb4 353f fa09 ec3e 7d77 cc3e 0d43 95be
00000290: 6523 c83e 6c18 0e3f e5d3 3abe 1aa4 b83e
000002a0: e288 0d3f 63f6 2c3f 7feb 1c3f 19c0 2a3e
000002b0: c450 d43e 613b 4b3e 93e8 13be a986 423f
000002c0: 7ae5 a0bd c42c 0f3f 6824 ed3e 4635 2d3f
000002d0: 5b10 ec3e 111d f33e 7157 813e d007 9dbe
000002e0: 1a62 de3e 617d 113f 95b6 05bf ee44 02be
000002f0: 41b4 ba3e 55d8 9b3e 1773 ef3e e243 093f
00000300: d282 703e 8975 7f3e 2271 4d3e 803f d33e
00000310: 0edf 0b3f fc42 443e 3695 503e 9375 cf3e
00000320: 5c4a cf3e 6c26 d0be 3a83 67bb 9011 993e
00000330: 3821 45be 4616 a23e ac08 603e 1b7b c4be
00000340: a47e 07be 50b8 78be cd0f 85bd 90b3 8e3e
00000350: a50e eabe 45da 99be 39fa 4e3e eee9 e83e
00000360: 4282 343e 367c 873e 5152 c43e e470 1b3e
00000370: 0c69 873e 21ae 00bf 666a 84be ddc4 96be
00000380: e5d2 8cbe c2db d23e 8fa8 3a3e 4fa6 aabd
00000390: eca2 81bd 282b 78be 52d9 f0bd 9e6c 233c
000003a0: 0fbc 9dbe 3f06 07bf 3d07 0b3d eda0 303f
000003b0: 1b55 1a3f c0f3 943e afb8 263e ed94 ccbe
000003c0: 34d0 0d3d 23a9 fdbd 3523 e43d 1f28 b43e
000003d0: 09e5 01be e9d9 d5bd 4083 8f3c 9328 df3e
000003e0: 3281 743e 221f be3e f3c8 edbe edcd b23e
000003f0: 4b62 d03e 1608 053f 56e9 fd3e 0486 ba3e

l1.bias f4 [8]
0.79603493 0.59116554 0.38411558 0.52229017 0.7074502 0.4643765 0.5217278 0.61338866
00000000: f2c8 4b3f a056 173f ccaa c43e cfb4 053f
00000010: 751b 353f c2c2 ed3e f48f 053f 0a07 1d3f

l2.weight f4 [8, 8]
1.058508 1.3196872 0.24744241 0.5012897 -0.30436355 -0.28047922 -0.7457666 -0.6113209
-0.20039266 0.057386428 -0.16616467 0.07561979 -0.09209907 -0.2869886 -0.16247994 0.1489273
1.3097986 0.7976205 -1.0424575 -0.33984464 0.6788072 0.2450085 -0.893587 0.2803154
-0.0060092877 -0.32011658 -0.23361957 0.5182394 0.7581501 0.98963493 0.96450216 0.89491045
-0.66791147 0.27219817 0.8853468 1.0931723 0.22734329 1.0111393 0.54881173 0.428747
-0.14897338 1.1362062 0.69101954 0.89462376 -0.47532287 0.9643354 -0.63093966 -0.14197496
0.2107168 -1.0875251 0.77251726 -0.022931272 1.1786429 -0.30360615 0.64569515 0.73943746
0.43787846 -0.19760886 -0.3594661 0.28099728 0.9797836 0.9846893 -0.7073403 1.2808272
00000000: 317d 873f 83eb a83f 8b61 7d3e 8654 003f
00000010: 8ad5 9bbe f99a 8fbe 8fea 3ebf 877f 1cbf
00000020: bc33 4dbe 080e 6b3d 1227 2abe 8cde 9a3d
00000030: 709e bcbd 2bf0 92be 2461 26be 6680 183e
00000040: 7ba7 a73f db30 4c3f 3f6f 85bf 1e00 aebe
00000050: 4fc6 2d3f 82e3 7a3e 1ec2 64bf 8085 8f3e
00000060: 8fe9 c4bb 52e6 a3be f839 6fbe 56ab 043f
00000070: 2016 423f b758 7d3f 9de9 763f da18 653f
00000080: 3ffc 2abf 8f5d 8b3e 16a6 623f 12ed 8b3f
00000090: aecc 683e 036d 813f ed7e 0c3f ba84 db3e
000000a0: 7a8c 18be 346f 913f a8e6 303f 1006 653f
000000b0: 855d f3be afde 763f 4385 21bf e261 11be
000000c0: 25c6 573e 0634 8bbf b1c3 453f 5dda bbbc
000000d0: c5dd 963f 4472 9bbe 474c 253f c64b 3d3f
000000e0: 9b31 e03e fa59 4abe f10b b8be e0de 8f3e
000000f0: 19d3 7a3f 9914 7c3f 4114 35bf 25f2 a33f

l2.bias f4 [8]
0.69974023 -0.089583814 0.59016424 0.17817548 0.3155361 0.20854783 0.7035302 0.20885216
00000000: 2d22 333f b877 b7bd 0115 173f a273 363e
00000010: f38d a13e 908d 553e 8e1a 343f 57dd 553e

l3.weight f4 [6, 8]
-0.25702322 -0.15785469 -1.072712 0.15280037 0.3661221 0.33061093 -0.9523455 0.14737922
0.7493704 0.0234707 0.82049406 -0.6735228 -1.1424048 -0.16673881 -0.44390753 -0.073338866
-0.8795784 -0.032038063 -0.8255691 0.7431235 0.66288024 -0.6660886 0.58250004 0.1399106
0.50638026 -0.15330915 -0.6852166 -1.0391582 0.3377322 0.42064616 -0.45826975 -1.0144647
-0.21376102 0.30743906 0.28760922 0.54447436 -0.18945211 -0.17185895 -1.0994868 0.64556766
-0.22963193 -0.10765666 0.43737727 0.18265104 -1.0072939 -1.1915046 0.8438792 0.65314096
00000000: 8c98 83be a9a4 21be a04e 89bf b377 1c3e
00000010: 5b74 bb3e d645 a93e eacc 73bf 94ea 163e
00000020: bdd6 3f3f a045 c03c e60b 523f fd6b 2cbf
00000030: 523a 92bf 94bd 2abe d947 e3be b032 96bd
00000040: 0d2c 61bf 583a 03bd 7f58 53bf 573d 3e3f
00000050: 85b2 293f c884 2abf b91e 153f b944 0f3e
00000060: 23a2 013f 13fd 1cbe 5b6a 2fbf 2303 85bf
00000070: 3ceb ac3e ef5e d73e 55a2 eabe fbd9 81bf
00000080: 2be4 5abe a768 9d3e 8441 933e ac62 0b3f
00000090: bcff 41be cbfb 2fbe fcbb 8cbf ec43 253f
000000a0: a224 6bbe 187b dcbd eaef df3e e008 3b3e
000000b0: 02ef 80bf 3983 98bf 7808 583f 3f34 273f

l3.bias f4 [6]
-0.32035896 0.4398987 0.20735428 0.3068733 -0.41313648 0.2069478
00000000: 1706 a4be 673a e13e ae54 543e 7f1e 9d3e
00000010: a086 d3be 20ea 533e
