data.pth (torch, 5023 bytes, 6 tensors)

l1.weight f4 [8, 49]
00000000: 0fa6 843e 639f 4c3e 0c94 22be 5df8 c03e
00000010: 7e96 4c3e 6655 9a3d b942 3cbe b6fb 5cbe
00000020: 188f bfbe ec9f 63be f494 b13e 5c9d b1be
00000030: ffe9 2b3e 2ccb 0abe 736f 96bc d621 bd3e
00000040: 07d0 413d e94e 2b3e bf11 113f d613 e13e
00000050: 300d 9c3e f5cd ba3e 5b48 b33e 4afb 1dbe
00000060: e78a d33e dcdf 8c3e 89cc c83d 43b4 043e
00000070: 7c83 acbe c558 af3b cac6 6abc 6d11 483e
00000080: 26c0 86bd 3951 373d ab7f c1be 46ec b5bd
00000090: 271c 603e a310 5a3e 4e24 87be 3c05 a63e
000000a0: 40ee be3e d100 ca3e a25c c7bd 62ad be3e
000000b0: 9b6e cfbd a9dd 763e 25ef 26be f3b7 d13e
000000c0: c2f2 1c3e 3b0e 17be 1257 02be b266 a0be
000000d0: 9dc8 dfbd a94b c0be 23dd 013f d9e8 43be
000000e0: 64db d93e 035f 193d 63c2 aa3e c789 87be
000000f0: 3d2e 113f e05f f83d 1a23 c73e 41fc e63e
00000100: ebaa a4be c091 0a3f 2839 9ebe 3346 a3be
00000110: af80 f3bd 4bf0 0dbf facf 1fbf cfee 6a3e
00000120: b262 a63e d523 cabc 4286 83be 808c 0ebe
00000130: 718c 253f f9c0 f33e bf37 4e3d e48c 7cbe
00000140: 00da 5b3a ca3d e33e a006 0ebe 8c82 1fbe
00000150: 8dfc 80be 6adc 1c3f 2f65 d0be f103 d23e
00000160: 5f15 2cbf 3946 33be d0aa 723c aa44 89bd
00000170: a18c b9be 30c5 db3e 25b9 72be 3913 2cbe
00000180: 9acf 0a3e 4b9c 0b3e dfd2 a63e 34b3 4d3e
00000190: 6234 91be 5531 c83e 0871 d3bc 343e 31ba
000001a0: 9985 0dbe a5d3 76be aa11 cebe f37d aebb
000001b0: 49ef c23e c4a5 51be b469 babe 8210 80be
000001c0: 15e0 a1bd 79b4 a13e d254 083e 276f 40be
000001d0: a413 a63e 7975 c33e b453 0a3f adf5 013f
000001e0: 6da7 a13e 65e5 1a3d 5c2e b23e fd0f fdbd
000001f0: 7ad3 2ebe e4c1 873d 1ced 21be 9a43 563e
00000200: 6ce2 4bbe 961d 54be 4464 6d3d fa64 23be
00000210: 8c2b d6be 10d5 bebd 14f3 633d 9595 f4bd
00000220: 3554 74be e5b1 233f a77d ca3e 2aaf c33d
00000230: 2a86 25be 65e9 b9be 331a 3dbe ed59 2fbe
00000240: 4a3a 03be 9b82 cb3d f363 e2bc b294 68bb
00000250: 6a0a 34bd 357d 173f 5042 31bd 454c bf3d
00000260: 1844 163e af44 053f 50dd 233f e87a 0a3f
00000270: 8723 093f 903b 5cbe 3cc6 0ebd 25ec be3e
00000280: 6425 f9ba 00d3 49bd a637 b9bd c95c 933e
00000290: de11 a5be 5b64 9cbe d11e 453e 1866 9cbe
000002a0: 7f66 9cbe db1e 13bf 69db a3bd 8762 17be
000002b0: cc6d 09be 6602 02be e154 c4bd f753 3f3e
000002c0: 2052 2d3d 4f53 133f 9ec7 20bc 6317 dd3d
000002d0: fc87 91bd 9585 fa3e 1a86 c03e 8fee ffbd
000002e0: 374d 98be 0597 1c3f 03ee cd3e fa55 a63e
000002f0: b739 eabd 6868 033f 42f2 9cbe 2365 1fbe
00000300: 210a 82be 2c88 ce3e 3ae7 523e c54b c4bd
00000310: 8740 adbd e6a6 863c 93d7 073f 1b1c 90be
00000320: 410b 823e 94e1 0b3f bf75 133f 8b12 3f3f
00000330: fe82 973e 512f 1f3f 9583 72be 09b6 1d3c
00000340: cb86 543f 51f0 993e 729e 0bbe 0246 60be
00000350: 2646 003f 6033 e13e 6462 e9be 7635 37be
00000360: 9a6a cabe bb9e d9be 343b 07bf 32ed cb3e
00000370: 72cc 60be 1785 083f 3711 f13e edc0 283e
00000380: b08b b73d 3ba5 04be c31a f43e ba53 003f
00000390: c68b a4be 57f5 013f 6520 b53e fa34 d93e
000003a0: fb31 863e df09 e23e 0411 413f a1a4 4dbf
000003b0: 1011 45be 71e9 953e 6849 1a3f 792c 483f
000003c0: 67e4 49be d0e2 df3e 08b4 023f c9a3 fc3e
000003d0: fc7a 143f c1d8 253f 9914 a43e 4e86 b63e
000003e0: 9618 42be 3227 a7be c3c4 433f 44be af3e
000003f0: ce6a b73e cfb9 893e 6b33 9e3e e58b b5be
0.25907943 0.19982676 -0.15876788 0.37689486 0.19979283 0.0753582 -0.18384828 -0.21580395
-0.3741386 -0.22228974 0.34683955 -0.34690368 0.16788481 -0.13554066 -0.01836369 0.36939877
0.04731753 0.1672932 0.56667703 0.43960446 0.3047881 0.36485258 0.3501614 -0.1542789
0.41316912 0.2751454 0.09804637 0.1295939 -0.33694065 0.0053511583 -0.014329622 0.19537897
-0.06579618 0.044755194 -0.37792715 -0.08882956 0.2188574 0.21295409 -0.26394886 0.3242587
0.37291145 0.39453748 -0.09734465 0.37241656 -0.10128518 0.24107994 -0.16302164 0.40960655
0.1532698 -0.14751522 -0.12728527 -0.3132835 -0.10926936 -0.37557724 0.5072805 -0.19131793
0.42550194 0.037444126 0.3335143 -0.26472303 0.5671118 0.12127662 0.38893968 0.4511433
-0.3216165 0.54128647 -0.30902982 -0.31889495 -0.11889779 -0.5544478 -0.6242672 0.22942661
0.32497174 -0.02467529 -0.25688368 -0.13920784 0.6466742 0.47608164 0.050346132 -0.2466312
0.00083866715 0.4438308 -0.13869715 -0.15577143 -0.2519268 0.61273825 -0.40702197 0.41018632
-0.6722011 -0.17507257 0.014811233 -0.0670255 -0.36240104 0.4292388 -0.2370344 -0.16804208
0.13555756 0.1363384 0.32582757 0.20087892 -0.28360277 0.39100137 -0.025810733 -0.0006761283
-0.13820495 -0.24104173 -0.40247852 -0.005325073 0.38073185 -0.20473391 -0.3640877 -0.25012594
-0.079040684 0.31583002 0.13313606 -0.18792401 0.3243686 0.38175562 0.5403397 0.50765496
0.31573048 0.037816424 0.34800994 -0.12356565 -0.1707286 0.066287786 -0.15813106 0.20924225
-0.19910592 -0.20714411 0.05795695 -0.15956488 -0.418301 -0.09317982 0.05565174 -0.11942593
-0.23860247 0.6394332 0.3954899 0.09554894 -0.16164461 -0.36310878 -0.18467025 -0.17124148
-0.12815204 0.099370204 -0.02763555 -0.003548902 -0.043955244 0.59175426 -0.04327613 0.09340719
0.14674413 0.5205793 0.6400957 0.5409379 0.53569835 -0.21507096 -0.03485702 0.3728954
-0.0019008336 -0.04927349 -0.09043817 0.28781727 -0.32240194 -0.30545315 0.19250037 -0.3054664
-0.30546948 -0.57468957 -0.080008335 -0.14783679 -0.1342079 -0.12696227 -0.09586502 0.18684374
0.04231465 0.57548994 -0.009813217 0.10795476 -0.07106015 0.4893004 0.3760231 -0.12496673
-0.2974641 0.6116794 0.4022065 0.3248747 -0.114367895 0.51331186 -0.30653578 -0.15565924
-0.25398353 0.40338266 0.20596018 -0.095847644 -0.08459573 0.016437005 0.53063315 -0.28146443
0.2539921 0.5464108 0.5760154 0.7463767 0.29592127 0.62181574 -0.23683007 0.00962592
0.8301818 0.3006616 -0.13634661 -0.21901706 0.5010704 0.4398451 -0.4558288 -0.17891487
-0.39534456 -0.42503914 -0.5282471 0.39829403 -0.2195299 0.5332808 0.47083446 0.16479845
0.0896219 -0.12953655 0.47676668 0.50127757 -0.3213789 0.50764984 0.35376278 0.4242323
0.26210007 0.44148156 0.7541659 -0.8032933 -0.1924479 0.29279664 0.6026826 0.7819286
-0.19716035 0.43727732 0.51055956 0.49343708 0.5800016 0.64783865 0.32046965 0.3564934
-0.18954691 -0.3264709 0.7647211 0.3432485 0.35823673 0.26899573 0.30898604 -0.35458294

l1.bias f4 [8]
00000000: 5855 5d3f a708 2c3f 544a 3f3f cb65 9c3e
00000010: 6160 e93e 7d91 0b3f d943 093f 7794 cc3e
0.8645835 0.672007 0.7472279 0.30546412 0.45581344 0.5451887 0.5361915 0.3995702

l2.weight f4 [8, 8]
00000000: de80 073f 6ac5 45bf 3f1a 4c3f ddd3 acbe
00000010: 8f86 03bf e5e6 8f3e 4e75 973f 384f 883e
00000020: 0366 cf3e 3bc0 903f ae4c 1dbf 1f95 823f
00000030: bc1e 803f b090 783f c6db 333f 0640 13bf
00000040: 9bcc eb3e 1bbf 55bf f2de 5b3f 963d 24be
00000050: 55da 54bf 4cd1 1b3f f66b 9a3f 7136 823e
00000060: 9bc2 613f acb2 1c3f c2dc be3f c504 c7be
00000070: d62c eabe fe59 223f f71e 60be b38c 04bf
00000080: b17d 773f 3b2e 32bf 3439 d93e f6d3 8dbf
00000090: f762 eb3e 8c26 85bf 5262 3c3e fb90 9c3e
000000a0: 33df 5e3f f954 723e b4ad c63e 335c 26bf
000000b0: 88b4 7e3e a0f8 9fbf 3acb a63e 74aa 9c3f
000000c0: 48bf b9be 7896 3a3e b38c 0fbe b4f0 d3be
000000d0: 691b b9be a4db 82be 0265 293e 9c88 843d
000000e0: c428 a03d 4677 793f 80eb 6f3f 267e 37bf
000000f0: 8c1c 15bf 494b 8fbf 873e a23e ea03 1b3f
0.5293101 -0.77254355 0.7972755 -0.3375539 -0.51377195 0.28105846 1.1832674 0.2662294
0.40507516 1.1308664 -0.6144513 1.0201758 1.0009379 0.97095776 0.7025722 -0.57519567
0.4605454 -0.8349473 0.8588706 -0.16039118 -0.8314565 0.60866237 1.2064197 0.2543216
0.8818757 0.6121013 1.491112 -0.38870826 -0.45737332 0.6341857 -0.21886812 -0.5177719
0.96676165 -0.6960179 0.42426455 -1.108031 0.45973942 -1.0402389 0.18396881 0.3057936
0.87059325 0.23665227 0.388044 -0.64984435 0.24873555 -1.2497749 0.32576925 1.2239518
-0.3627875 0.18221462 -0.14018516 -0.4139458 -0.36153725 -0.25558197 0.16542438 0.06471369
0.078202754 0.9744762 0.9371872 -0.7167686 -0.58246684 -1.119485 0.3168833 0.6055285

l2.bias f4 [8]
00000000: bef0 f03d 554a aa3e bd30 9c3c 7249 1c3f
00000010: d82a ee3e 773a b73e 8799 a3be 58d4 d23e
0.11764668 0.33259836 0.019066209 0.6104957 0.46517062 0.35786793 -0.3195307 0.4117763

l3.weight f4 [6, 8]
00000000: a39b abbe a7e7 d9be 4347 fcbe 2c12 6cbf
00000010: d7c7 88bf a77b f03e a624 c1bd 999d 783f
00000020: 2e9b 44bf 4c46 d23e b116 70bf cbd7 863f
00000030: 9cc6 26bf 0c48 51bf f2ac babd 4314 07bf
00000040: ccd0 923e 5ae3 a2bf e3ea d03e 7a2b 8e3e
00000050: 6c13 1e3f 0273 2f3d 761b 233e d01d 3b3f
00000060: a505 883e 9867 1dbd ceb1 64bf d74f 84bf
00000070: 75e3 5a3f 93e1 9b3e f748 b8be 4786 63bf
00000080: e75c 7dbb 42b6 6d3f 83a4 273e 9377 b6bf
00000090: 461a 26bf 6429 70bf 442e 953e c5ca 24bf
000000a0: c96c 123f 7dc8 d4be c6ce 323f e9d0 e23e
000000b0: 480f 10bf b78c 3fbf 481e e63d b59c 46bf
-0.3351718 -0.4255955 -0.49273118 -0.9221523 -1.0685986 0.4696934 -0.09430818 0.97115475
-0.76799285 0.41069257 -0.93784624 1.0534605 -0.65146804 -0.8175056 -0.09115018 -0.5276529
0.28674924 -1.2725632 0.40804204 0.27767545 0.61748385 0.04283429 0.15928444 0.73092365
0.26566806 -0.038428873 -0.8933381 -1.0336865 0.8550332 0.30445537 -0.35993168 -0.88876766
-0.003866011 0.9285623 0.1637135 -1.4255241 -0.6488384 -0.9381316 0.2913686 -0.643719
0.5719724 -0.4155921 0.6984676 0.4430001 -0.5627332 -0.7482409 0.112362444 -0.77582866

l3.bias f4 [6]
00000000: b3d3 7d3e ffe2 e63e 72ce 72be 4f21 113e
00000010: a594 e23d f899 e8bc
0.24787788 0.4509506 -0.23711565 0.14172862 0.11063508 -0.02839373
